FFN-Classification/Models/my-best-trained-model2.pt (torch, 126272 bytes, 4 tensors)

linear1.weight f4 [100, 300]
000000 db 66 6a be 3d f0 66 be 0f 65 8f be 89 3b 62 be
       -0.22890799 -0.22552581 -0.2800679 -0.22093023
000010 6f 97 8e be 6f 6e 8e 3e dd 13 96 be 38 a1 73 be
       -0.2784991 0.2781863 -0.2931203 -0.23791969
000020 14 32 64 be 6f 7d 9c be 63 bc 64 be 12 52 84 be
       -0.22284728 -0.30564448 -0.22337489 -0.25843865
000030 97 ac 9c 3e c0 9a 85 be 56 2b 79 be c0 05 85 3e
       0.30600426 -0.26094627 -0.24332938 0.2598095
000040 b9 09 6a be c3 25 8d 3e b0 fa 79 3e 8f f3 8f 3e
       -0.22855271 0.27567872 0.24412036 0.28115508
000050 2c 92 94 be 70 2a 86 3e cf f2 93 be 3f ab 9a 3e
       -0.2901777 0.26204252 -0.28896186 0.30208775
000060 32 08 9e be 65 36 95 be 22 e1 81 3e 5b 0d 99 be
       -0.30865628 -0.29143062 0.25367075 -0.29893002
000070 38 b0 8b 3e 11 ad 5e 3e 15 12 63 be 2d 91 65 3e
       0.27282882 0.21745707 -0.22174866 0.22418661
000080 4a b7 9c 3e f0 ab 8d 3e 7f bd 80 3e ce fe 71 be
       0.30608588 0.2767024 0.25144574 -0.23632357
000090 62 30 85 be 15 12 68 be f1 6d 86 be 01 04 81 3e
       -0.26013476 -0.22663148 -0.26255754 0.25198367
0000a0 30 46 90 3e ce 1d 82 3e 0a b6 7b be 1e aa a0 3e
       0.2817855 0.25413364 -0.24581161 0.3137979
0000b0 40 41 98 3e b9 c2 94 be 73 21 74 be 3f ee 8d 3e
       0.29737282 -0.29054812 -0.23840885 0.2772083
0000c0 bf 32 77 be 17 86 72 3e 12 4a a3 be cb 38 93 be
       -0.24140452 0.23683964 -0.3189245 -0.28754267
0000d0 b3 19 5b 3e 7d 5f 67 be 69 c4 90 3e 3b c8 7c be
       0.21396522 -0.2259502 0.2827485 -0.24685757
0000e0 3a f1 80 be e4 78 89 be 50 7b 65 be 1d 34 6d 3e
       -0.2518404 -0.26850045 -0.22410321 0.23164411
0000f0 8d de 8a 3e 0d 37 9b be ea 4f 91 3e 6a 55 92 be
       0.27122918 -0.30315438 0.28381282 -0.2858079
000100 53 10 91 3e d2 bf 7f 3e 94 fe 66 be dd c6 98 be
       0.28332767 0.24975517 -0.22558051 -0.2983922
000110 f2 7b 98 be a4 81 98 be f5 28 63 be 3e f3 91 3e
       -0.29782063 -0.29786408 -0.22183593 0.28505892
000120 14 ea 5f be 61 f1 9e be b0 66 5e 3e 48 12 68 3e
       -0.21866637 -0.31043532 0.2171886 0.22663224
000130 01 cc 9a be f8 e9 93 3e 7c 17 7e be 3d cf 66 be
       -0.30233768 0.28889441 -0.24813646 -0.22539993
000140 f4 69 77 3e 2a 63 6e 3e 56 37 97 3e 4e e5 93 be
       0.24161512 0.23280016 0.29534405 -0.28885883
000150 d2 39 99 3e 74 89 8f be 88 39 98 3e a7 7a 69 3e
       0.29926926 -0.28034556 0.29731393 0.22800694
000160 cf 80 96 be 9d 41 91 3e 04 be 83 be 10 fd 8f be
       -0.29395148 0.2837037 -0.25730908 -0.2812276
000170 9f cc 98 3e 44 9f 6e be 0c 67 6c 3e 87 4b 76 3e
       0.29843614 -0.23302943 0.23086184 0.24052249
000180 4c 6b 62 be 24 25 92 be 11 a0 92 be 00 59 5f 3e
       -0.22111243 -0.2854396 -0.28637746 0.21811295
000190 32 5e 74 3e 0d de 8f 3e 38 cf 85 3e 82 71 6c 3e
       0.23864058 0.280991 0.26134658 0.23090175
0001a0 0a af 88 be 4c 21 9b be 26 73 9f be cd bd 97 be
       -0.26696044 -0.3029884 -0.3114254 -0.29636994
0001b0 04 35 64 3e f2 14 71 3e 94 fe 5d be 86 50 84 be
       0.22285849 0.23543146 -0.21679145 -0.25842685
0001c0 26 0e 81 be 19 c7 a1 be 4d 54 6e 3e d6 69 80 3e
       -0.25206107 -0.31597212 0.23274346 0.25080746
0001d0 fd 25 85 be cc 66 a0 be bb 9a 94 be 7c 13 73 3e
       -0.26005545 -0.31328428 -0.290243 0.23737901
0001e0 5c 60 89 3e 0b ef 7e 3e 08 7b 87 3e 9a c1 6e 3e
       0.2683133 0.24895875 0.26461053 0.2331604
0001f0 4f 48 9b be b4 a0 98 be f1 4b 80 3e 08 00 9e be
       -0.30328605 -0.29810107 0.2505794 -0.308594
000200 bd 3b 9f 3e 28 cf 83 3e 73 eb 9f 3e b0 1c 81 be
       0.31100264 0.25743985 0.3123432 -0.252172
000210 63 75 5d 3e ef 2b 6e be b1 07 82 3e 76 0c 93 be
       0.2162681 -0.23258947 0.25396493 -0.28720444
000220 0f 1a 9f be 89 0a a1 be b2 c2 81 be 31 83 83 3e
       -0.3107457 -0.3145335 -0.25343853 0.2568603
000230 10 26 7e be 9f 6f 67 3e 1d 54 9c 3e fe 18 67 3e
       -0.24819207 0.22601174 0.30532923 0.22568128
000240 ca b3 84 3e 1e bc 8e 3e d4 67 77 be b2 25 68 be
       0.25918418 0.27877897 -0.24160701 -0.2267063
000250 0d 73 62 be 1d 2e 68 3e e8 71 82 be ca 8f 94 be
       -0.22114201 0.22673841 -0.2547753 -0.29015952
000260 b6 19 8c be 14 3e 6b 3e f2 24 62 be 37 93 9c be
       -0.27363366 0.229729 -0.22084406 -0.30581066
000270 8c 4f 97 3e 0c 7a 92 3e 68 cb 91 3e c4 1e 76 3e
       0.29552877 0.2860874 0.284755 0.24035174
000280 2b b4 62 be 3b f8 8e 3e 24 9a 8c 3e 18 f1 63 3e
       -0.22139041 0.2792376 0.2746135 0.22259939
000290 57 2d 94 3e 0b 55 85 3e 3c b2 79 3e d3 d0 9f 3e
       0.28940842 0.26041445 0.24384397 0.31214008
0002a0 4e 4a 83 be fc 82 75 3e 70 8b 96 be d7 02 88 3e
       -0.25642627 0.23975748 -0.29403257 0.26564667
0002b0 ea a5 97 3e 8c 03 90 be 15 92 74 3e 1f 4f 92 be
       0.2961877 -0.28127706 0.23883851 -0.2857599
0002c0 af 54 6b 3e 3b 8c 7f be 1c b6 69 be b6 fa 60 3e
       0.22981523 -0.24955837 -0.22823375 0.21970639
0002d0 07 e5 82 be b8 b1 96 3e 4c a0 8d 3e 70 d0 7f 3e
       -0.2556536 0.29432464 0.2766136 0.24981856
0002e0 9b 03 97 3e cb e1 96 3e 72 d2 7e be 92 d7 8d be
       0.29494938 0.2946914 -0.24884966 -0.2770353
0002f0 ab 3d 90 be 92 7d 86 be 87 dd 8d be 7d 53 81 3e
       -0.2817205 -0.26267678 -0.27708074 0.2525901
000300 76 0c 9a 3e a6 de 9f 3e 4d 98 86 3e 2a 26 8f be
       0.30087632 0.31224555 0.2628807 -0.27958804
000310 8e e5 88 be bb ab 87 3e 24 8b 8f 3e 89 c9 81 be
       -0.26737636 0.26498207 0.28035843 -0.25349072
000320 81 f9 a0 be 83 ef 92 be 3b 6d 9f 3e de b2 7c be
       -0.31440356 -0.28698358 0.31138024 -0.24677607
000330 e1 93 8a be 3f f2 98 be 9a 5d 99 be 96 86 63 3e
       -0.27065948 -0.2987232 -0.29954225 0.22219309
000340 e6 c6 91 be 46 4e 80 be 50 11 71 be 80 28 7a be
       -0.2847206 -0.25059718 -0.2354176 -0.24429512
000350 41 cb 63 3e 0c 0f 99 be 15 48 8d be d6 ae a2 3e
       0.22245504 -0.29894292 -0.27594057 0.31774014
000360 58 15 8d 3e c6 ed 8f be 3c f9 93 3e cf 4d 93 be
       0.27555346 -0.28111094 0.28901088 -0.287703
000370 33 1c 9a be ee e4 6b be e4 d5 79 3e a3 89 8e be
       -0.3009964 -0.23036548 0.24397999 -0.27839383
000380 d0 67 a3 be a8 3a 6f be b4 c2 6a be 55 5f 7f be
       -0.3191514 -0.2336222 -0.22925836 -0.2493871
000390 dd 95 9b be a4 30 a3 be ad a3 9e be ad 78 55 be
       -0.30387774 -0.31873047 -0.3098425 -0.20846815
0003a0 f2 e1 95 3e 06 5c 9f 3e 6b 0b 77 be 2e a0 82 be
       0.29273945 0.31124896 -0.2412545 -0.25512832
0003b0 e9 e1 88 3e e1 47 9d be bd c6 9f be 24 a4 a1 be
       0.26734856 -0.30718902 -0.31206313 -0.31570542
0003c0 a0 0f 7d be d8 e9 95 be b4 fc 83 3e ac 59 74 3e
       -0.24712992 -0.2927997 0.25778735 0.23862332
0003d0 d8 0e 8e be 5d af 9b be 69 3a 70 3e 51 86 80 be
       -0.277457 -0.3040723 0.23459782 -0.25102475
0003e0 b0 7b 81 3e f9 84 99 3e f1 69 80 3e be 8f 9c be
       0.2528968 0.29984263 0.25080827 -0.30578417
0003f0 5c ef 8d be 36 14 79 3e 2f 36 81 3e c8 3a 60 3e
       -0.2772168 0.24324116 0.2523665 0.21897423

linear1.bias f4 [100]
000000 ec f3 66 be eb 91 72 be 4c 01 9a be 68 3b 7f be
       -0.22553986 -0.23688476 -0.30079114 -0.24925005
000010 15 4e 40 bd d6 bd 91 3e a8 ca 1f be 78 3f 28 bd
       -0.046949465 0.28465146 -0.15604651 -0.041076154
000020 4d 75 34 3d dd 4e 11 bd 1e 04 14 bd a7 3f 45 bd
       0.04405718 -0.0354756 -0.03613674 -0.048156407
000030 12 b0 4c bd 2b fd 7d be 4c 11 79 be 56 bd 52 3e
       -0.0499726 -0.24803607 -0.24323004 0.20580038
000040 c5 d9 4b bd 0a c5 e6 bc cc 7c 4e bd c2 e0 46 bd
       -0.049768228 -0.028170127 -0.050411984 -0.04855419
000050 f5 0d 94 be b7 8f 82 be 65 ca af 3d fe 05 84 be
       -0.28916898 -0.2550027 0.085835256 -0.25785822
000060 40 94 51 bd 4b 1b 66 be f0 1a 48 3e fc 3f 87 3d
       -0.051166773 -0.22471349 0.19541526 0.06604001
000070 d5 3f 41 bd 2e a2 97 be e7 7e 94 be aa e9 f3 3c
       -0.047180016 -0.2961592 -0.2900307 0.029774506
000080 9e 70 63 be cb 91 83 be 46 b2 41 3e 8d d0 84 be
       -0.22210929 -0.2569717 0.18915662 -0.25940362
000090 65 67 9f 3e ce 00 7f be 35 47 99 3c 12 86 7f be
       0.3113357 -0.2490265 0.018710712 -0.24953488
0000a0 c8 14 3f 3d 78 e6 e6 3d 0f f0 4e bd 23 37 cb 3d
       0.046650678 0.11274427 -0.050521906 0.09922626
0000b0 6e 5e 2e 3e 4f ca 42 bd 27 1f 66 be 24 dd 0b be
       0.1702821 -0.047556218 -0.22472821 -0.13658577
0000c0 82 1f cb 3d b6 24 50 bd 81 a7 77 bc 8d d7 69 3e
       0.09918119 -0.05081626 -0.01511562 0.22836132
0000d0 55 68 95 3e 5a 41 8a be 04 fc 92 3e 87 ca 77 3e
       0.29181162 -0.27002984 0.28707898 0.24198352
0000e0 ec d3 58 bd 99 1f ff bc 31 14 47 3d 83 9e 84 be
       -0.05293648 -0.031142997 0.04860324 -0.25902185
0000f0 b2 a5 c8 3e 51 9e 63 be 8e d4 b8 3e 7b b6 b2 3e
       0.39188915 -0.22228362 0.36099666 0.34904847
000100 c7 b2 9e 3e bd 9c a3 bc 9a 2a e6 bc 18 f9 16 3e
       0.3099577 -0.0199722 -0.028096486 0.14743459
000110 8b 6e 47 3d 40 35 95 be a1 41 80 be 1e fb 0a bd
       0.048689406 -0.2914219 -0.2505007 -0.03393089
000120 be 3a 95 be a7 a8 45 bd 76 f7 73 be 1d f8 fc bc
       -0.2914638 -0.048256543 -0.23824868 -0.030880028
000130 72 97 79 3e a1 a9 7a be 3b 67 fb bc 09 5a 0e bd
       0.24374178 -0.24478771 -0.030688873 -0.034753833
000140 70 04 48 bd dd 76 4a 3e 2c d0 0a bd a6 49 13 3e
       -0.048832357 0.19771905 -0.033889934 0.14383563
000150 e3 01 84 be 24 9f b7 bc ff f7 bf bc 2d 2c 94 be
       -0.2578269 -0.022414751 -0.023433683 -0.28939953
000160 25 44 2d 3b 02 a4 83 3e 28 ee 14 bd aa 0c 6c be
       0.0026438322 0.25711066 -0.036359936 -0.23051706
000170 c8 00 98 3d 6a 89 64 be 67 41 48 bd 9c f1 82 be
       0.07422024 -0.22318044 -0.048890498 -0.25574958
000180 48 24 68 be 75 64 2e bd 4b 79 9d 3e 82 e1 07 bd
       -0.2267009 -0.042576272 0.30756602 -0.033174045

linear2.weight f4 [9, 100]
000000 e5 04 a5 3e 0d d2 77 3e 4b 83 4b be ba 71 4f 3e
       0.32230297 0.24201222 -0.19874303 0.20258227
000010 b6 e7 74 39 43 d9 9a bf 33 9a 53 3e 68 19 79 bd
       0.00023355972 -1.2097553 0.20664291 -0.060815245
000020 b4 09 4a 3f e0 b1 88 bd d5 b2 4f bc 2b 4c 82 bd
       0.78921056 -0.06674552 -0.012676914 -0.06362184
000030 ee f4 7e 3d d3 39 89 3e 71 e8 9b 3e b2 3a 35 40
       0.062245302 0.2680193 0.30450776 2.8317075
000040 fa 9a c8 b8 09 a4 a3 3c 65 ed 47 bd 3e d7 17 bd
       -9.56561e-05 0.019975679 -0.04881038 -0.037070505
000050 4e 3f 97 be 25 c2 53 3e 85 2d d9 3f 0f 2a 49 3e
       -0.29540485 0.20679529 1.6967016 0.1964495
000060 c3 88 53 3c 7a 81 8b 3e 79 fc 8d 3e 0d f3 9a bc
       0.0129110245 0.2724722 0.27731684 -0.018914724
000070 c0 6a 98 3c db 5b 6c 3e 71 d8 94 be f3 28 21 40
       0.01860559 0.23081915 -0.29071382 2.5181243
000080 9b 54 83 3e 42 44 50 3e 64 a0 dd bf 23 eb a3 3e
       0.25650486 0.20338538 -1.7314572 0.32015333
000090 08 60 ba bf aa e9 88 3e a7 ed a8 3f 0e f0 52 3e
       -1.4560556 0.26740772 1.3197526 0.20599386
0000a0 ac b8 89 3f 2e af d9 3f 27 a5 26 3d 77 6b 96 3f
       1.0759482 1.7006586 0.040684845 1.1751546
0000b0 87 a1 23 bf 04 90 69 3f 7e 6f 56 3e 71 ea ee 3f
       -0.63918346 0.91235375 0.20940968 1.8665296
0000c0 72 df 8f be c3 db de 3b c9 a3 20 40 15 ab 01 c0
       -0.28100163 0.0068011 2.5099967 -2.026067
0000d0 fb 73 aa bf e8 d8 53 3e 8c ca 1f bf d9 4f b2 3f
       -1.3316644 0.20688212 -0.62418437 1.3930618
0000e0 b4 68 98 3f c8 e5 24 bd 74 1f 82 3f 4a e2 3c 3e
       1.1906953 -0.0402582 1.0165849 0.18445697
0000f0 ce 4b b2 bf 44 cd 88 3e 48 78 7d 3e 63 37 a7 bf
       -1.3929384 0.26719105 0.24752915 -1.3063778
000100 1f 7d c6 bf 82 4c cb bc 9b e9 43 3a aa 5b e8 bd
       -1.5506934 -0.024816755 0.00074734696 -0.113456085
000110 24 f1 e8 3f 07 40 9e be cf c0 95 3e 90 b1 b5 bd
       1.819859 -0.30908224 0.29248664 -0.08871758
000120 cf 90 64 be 1b cc 4f bd 74 5f 94 3e d4 46 07 bb
       -0.22320865 -0.05073176 0.28979075 -0.0020641582
000130 4c 8d 9c bf 11 22 4a be 66 ee 2f 3d 08 d7 a2 bd
       -1.223062 -0.19739558 0.042951964 -0.0795117
000140 6f 8d a9 3f c6 c1 ef be fd 86 14 3d 4a 7a 17 3f
       1.3246287 -0.46827525 0.036261547 0.59170973
000150 24 2a b6 3e 7a e7 3f 3d 8a d8 36 bc 48 de 1a 3e
       0.35579026 0.046851613 -0.011160025 0.15123856
000160 75 87 9d 3f 8e 13 f0 bf d3 a8 40 3d b6 fd 90 3e
       1.2306963 -1.8755968 0.047036003 0.28318566
000170 7d f3 65 3f 94 15 97 3e 3c 80 8a bd 2d 9d 6c 3e
       0.8982466 0.2950865 -0.0676274 0.23106833
000180 07 e8 7e 3e 7d 0f ab bd d0 ac eb 3f e1 ea 2e bd
       0.24893199 -0.083525635 1.8412113 -0.042704467
000190 3e 84 67 3e fe 0d 71 3e 1a 81 29 be 3b 0f 89 3e
       0.2260904 0.23540494 -0.16553155 0.26769432
0001a0 75 15 20 3d 39 9f 57 3f 41 d2 2e 40 6e f5 90 3d
       0.039082963 0.8422733 2.7315829 0.07078062
0001b0 75 45 d6 3e 38 18 51 3d 15 74 b5 3d bc 50 12 3d
       0.41849867 0.051048487 0.088600315 0.035721526
0001c0 3b bc 93 3d cb 17 a2 3e 4c 90 6c 3e c2 54 87 be
       0.072136365 0.31658778 0.2310192 -0.26431853
0001d0 97 56 36 bd 14 ed 8b 3d bf 5a da 3c ce 2a 7a bd
       -0.044516172 0.068323284 0.0266546 -0.061075978
0001e0 78 c8 31 be 3b 99 a3 3e 0f 84 f7 bf 8e e2 51 3e
       -0.17361629 0.31952843 -1.9337176 0.2049658
0001f0 f3 3a 32 bd 33 96 40 3e 27 6a 01 3f 91 8d a7 3f
       -0.04351325 0.18807296 0.505526 1.3090078
000200 24 03 a8 bb 27 01 39 be ac e9 2f be b3 6b ed 3f
       -0.0051273275 -0.18066846 -0.17178982 1.8548492
000210 50 a9 98 3e 31 ef 5d 3e a0 6e d8 3f c8 fd 44 3e
       0.29816675 0.21673276 1.690876 0.19237435
000220 4e 2f 0d bf de 63 95 3e d4 f4 c9 be 1a 37 51 3e
       -0.55150306 0.29177755 -0.39444602 0.20431176
000230 fb d4 67 3d b7 da 19 3d f2 c7 85 bd 66 6f 1b c0
       0.0565996 0.0375621 -0.06532277 -2.4286742
000240 66 a2 0a be 7e fc 7d 3f e4 5e 3e 3e 78 07 15 3e
       -0.13538513 0.992134 0.18590885 0.1455363
000250 48 dc 8c 3f df 56 71 bd 00 d0 7d 3f 65 77 c3 be
       1.1004725 -0.058920737 0.9914551 -0.38177028
000260 b8 1a 71 3f 6d 3c 83 3e 36 7c 86 3f 71 65 a6 bf
       0.94181395 0.2563204 1.0506656 -1.2999707
000270 b2 c4 d2 3e f1 10 4d bd ec 34 29 3e f2 9b 40 3e
       0.41165692 -0.050064985 0.16524094 0.18809488
000280 99 e3 c6 bf 8d 09 8b 3e b8 cc da bf ed 79 15 3f
       -1.5538207 0.27155724 -1.7093725 0.5838917
000290 cf e0 a4 bf 00 b5 97 bc 3b d5 62 bc 54 6c 0f 3f
       -1.2881106 -0.018518925 -0.013844783 0.5602467
0002a0 0b f4 48 bf fc 3b 59 be 67 55 64 3e 1f 03 9a 3b
       -0.7849738 -0.21214288 0.22298203 0.004700079
0002b0 8c c3 b0 be 22 a1 f6 bc 0a a0 43 3e 64 36 92 bd
       -0.3452419 -0.030106131 0.19104019 -0.071392804
0002c0 6f 79 72 3f 78 9b 3e 3e f0 e2 32 3d 82 d0 40 bd
       0.9471654 0.18613994 0.043673456 -0.04707385
0002d0 76 75 6f 3f c0 35 ef be 0d 7d 17 bd 4a 03 d9 3e
       0.93538606 -0.46720695 -0.036984492 0.42385322
0002e0 a5 65 52 3e cc aa 6f bd bc 59 9b bd f6 ce 1e be
       0.20546587 -0.058512494 -0.07585475 -0.15508637
0002f0 70 a9 34 3f ab 62 6d be a5 a8 83 3d dc b8 40 3e
       0.7057104 -0.2318217 0.06428651 0.18820518
000300 41 6f a8 3e f1 f3 38 3e 7f 9a b2 3d 9d 3f 68 3e
       0.3289738 0.18061806 0.08720874 0.22680517
000310 54 eb 5f 3e 51 39 b1 3c 35 7a fd bf 21 11 84 3d
       0.21867114 0.021633776 -1.980292 0.064485796
000320 d3 78 82 3e 2e 23 9f 3e 1c bc 22 be 88 3e 9b 3e
       0.25482807 0.31081527 -0.1589207 0.30321145
000330 da 6e 02 bd a4 97 4a 3f 87 a7 7b c0 28 6a 6b bd
       -0.031843998 0.79137635 -3.9321 -0.057474285
000340 f4 21 f2 bf 60 18 0f bc 25 74 4a bd dc a6 83 bd
       -1.8916612 -0.008733839 -0.04942717 -0.0642831
000350 d1 f9 d7 bc 6f ff 59 3e 6d 71 9d 3e 09 bb 8a 3e
       -0.026364239 0.21288846 0.307506 0.27095821
000360 d5 4c a0 3d d4 62 4b 3d 31 a9 c4 bc cd 33 2e bc
       0.078271545 0.049654797 -0.024006458 -0.010632467
000370 19 4c 26 3e 17 f5 9a 3e db c9 0d 3f b2 d5 aa 3e
       0.16239966 0.30265114 0.5538613 0.33366162
000380 a3 5f a8 bd 59 bb 8d 3e 21 78 b6 be 98 e9 53 bf
       -0.08221366 0.27681997 -0.35638526 -0.8277831
000390 b2 87 32 bc 15 b7 53 be f0 90 3c be 54 eb 02 c0
       -0.01089661 -0.20675309 -0.18414664 -2.0456133
0003a0 c9 bc 4d 3e 99 3e 99 3e 5d 40 e3 bf 4d 16 8a 3e
       0.20091547 0.2993057 -1.7754017 0.2697014
0003b0 cb ec 90 3f fb 7e 42 3e b3 6c 8b bf 09 ac 8e 3e
       1.1322263 0.18993752 -1.0892547 0.27865627
0003c0 7c 88 ad be b4 05 9c 3f 31 59 53 3d 5a 70 6d 3f
       -0.33893192 1.218924 0.05159873 0.9274956
0003d0 a1 f1 de 3f 55 57 92 bf 15 8b 4d 3e 2b 8d 76 bf
       1.7417489 -1.1432902 0.20072587 -0.96309155
0003e0 a9 54 85 3f 50 86 7e bd d8 6d b4 3f 1a 3a 20 bf
       1.0416461 -0.06213981 1.4096022 -0.62588656
0003f0 ab 8c 48 3f f8 25 83 3e 39 65 97 bf 2a e1 c4 3c
       0.7833964 0.25614905 -1.1827766 0.024033148

linear2.bias f4 [9]
000000 fa fd a3 bd 7c 7c 23 3c c2 3a 55 3e e0 82 ae bd
       -0.080074266 0.00997841 0.20823196 -0.08521056
000010 a3 e7 88 bd 64 57 fc 3c 98 08 02 be c8 78 4d 3e
       -0.06684806 0.03080339 -0.12698591 0.20065606
000020 a1 e8 22 3d
       0.039772633
